…
Loading train and test indeces...
Splitting train and test data ...
Train data shape: (882, 64, 128, 64), Train labels shape: (882,)
Test data shape: (228, 64, 128, 64), Test labels shape: (228,)
[[ True False]
 [ True False]
 [ True False]
 ...
 [ True False]
 [ True False]
 [ True False]]
5-Fold split created

Model: "functional"

┏━━━━━━━━━━━━━━━━━━━━━━━━━━━━━━━━━┳━━━━━━━━━━━━━━━━━━━━━━━━┳━━━━━━━━━━━━━━━┓
┃ Layer (type)                    ┃ Output Shape           ┃       Param # ┃
┡━━━━━━━━━━━━━━━━━━━━━━━━━━━━━━━━━╇━━━━━━━━━━━━━━━━━━━━━━━━╇━━━━━━━━━━━━━━━┩
│ input_layer (InputLayer)        │ (None, 64, 128, 64, 1) │             0 │
├─────────────────────────────────┼────────────────────────┼───────────────┤
│ conv3d (Conv3D)                 │ (None, 32, 64, 32, 64) │        22,016 │
├─────────────────────────────────┼────────────────────────┼───────────────┤
│ batch_normalization             │ (None, 32, 64, 32, 64) │           256 │
│ (BatchNormalization)            │                        │               │
├─────────────────────────────────┼────────────────────────┼───────────────┤
│ activation (Activation)         │ (None, 32, 64, 32, 64) │             0 │
├─────────────────────────────────┼────────────────────────┼───────────────┤
│ conv3d_1 (Conv3D)               │ (None, 32, 64, 32, 32) │       256,032 │
├─────────────────────────────────┼────────────────────────┼───────────────┤
│ batch_normalization_1           │ (None, 32, 64, 32, 32) │           128 │
│ (BatchNormalization)            │                        │               │
├─────────────────────────────────┼────────────────────────┼───────────────┤
│ activation_1 (Activation)       │ (None, 32, 64, 32, 32) │             0 │
├─────────────────────────────────┼────────────────────────┼───────────────┤
│ conv3d_2 (Conv3D)               │ (None, 32, 64, 32, 32) │        27,680 │
├─────────────────────────────────┼────────────────────────┼───────────────┤
│ batch_normalization_2           │ (None, 32, 64, 32, 32) │           128 │
│ (BatchNormalization)            │                        │               │
├─────────────────────────────────┼────────────────────────┼───────────────┤
│ activation_2 (Activation)       │ (None, 32, 64, 32, 32) │             0 │
├─────────────────────────────────┼────────────────────────┼───────────────┤
│ conv3d_3 (Conv3D)               │ (None, 32, 64, 32, 32) │        27,680 │
├─────────────────────────────────┼────────────────────────┼───────────────┤
│ batch_normalization_3           │ (None, 32, 64, 32, 32) │           128 │
│ (BatchNormalization)            │                        │               │
├─────────────────────────────────┼────────────────────────┼───────────────┤
│ activation_3 (Activation)       │ (None, 32, 64, 32, 32) │             0 │
├─────────────────────────────────┼────────────────────────┼───────────────┤
│ conv3d_4 (Conv3D)               │ (None, 32, 64, 32, 32) │        27,680 │
├─────────────────────────────────┼────────────────────────┼───────────────┤
│ batch_normalization_4           │ (None, 32, 64, 32, 32) │           128 │
│ (BatchNormalization)            │                        │               │
├─────────────────────────────────┼────────────────────────┼───────────────┤
│ activation_4 (Activation)       │ (None, 32, 64, 32, 32) │             0 │
├─────────────────────────────────┼────────────────────────┼───────────────┤
│ global_average_pooling3d        │ (None, 32)             │             0 │
│ (GlobalAveragePooling3D)        │                        │               │
├─────────────────────────────────┼────────────────────────┼───────────────┤
│ dense (Dense)                   │ (None, 2)              │            66 │
└─────────────────────────────────┴────────────────────────┴───────────────┘

 Total params: 361,922 (1.38 MB)

 Trainable params: 361,538 (1.38 MB)

 Non-trainable params: 384 (1.50 KB)

None
Fold 1/5
Xtrains shape (706, 64, 128, 64, 1)
Xvals shape (176, 64, 128, 64, 1)
Epoch 1/100
23/23 ━━━━━━━━━━━━━━━━━━━━ 138s 2s/step - accuracy: 0.7535 - auc: 0.8270 - loss: 0.5305 - val_accuracy: 0.1705 - val_auc: 0.1705 - val_loss: 18.3059
…
